…
params: {'dataset_name': 'MOOCRadar', 'model_name': 'akt', 'emb_type': 'qid', 'save_dir': 'saved_model', 'seed': 3407, 'fold': 0, 'dropout': 0.2, 'd_model': 64, 'd_ff': 128, 'num_attn_heads': 4, 'n_blocks': 4, 'learning_rate': 0.0001, 'use_wandb': 1, 'add_uuid': 1}, params_str: MOOCRadar_akt_qid_saved_model_3407_0_0.2_64_128_4_4_0.0001_1_1
Start training model: akt, embtype: qid, save_dir: saved_model/MOOCRadar_akt_qid_saved_model_3407_0_0.2_64_128_4_4_0.0001_1_1_a86a963d-8958-4dd1-b67c-67b5936c73cd, dataset_name: MOOCRadar
model_config: {'dropout': 0.2, 'd_model': 64, 'd_ff': 128, 'num_attn_heads': 4, 'n_blocks': 4, 'learning_rate': 0.0001, 'use_wandb': 1, 'add_uuid': 1}
train_config: {'batch_size': 64, 'num_epochs': 200, 'optimizer': 'adam', 'seq_len': 200}
2024-04-23 18:01:26 - main - said: init_model
model_name:akt
model is AKT(
  (difficult_param): Embedding(2904, 1)
  (q_embed_diff): Embedding(3358, 64)
  (qa_embed_diff): Embedding(6715, 64)
  (q_embed): Embedding(3357, 64)
  (qa_embed): Embedding(2, 64)
  (model): Architecture(
    (blocks_1): ModuleList(
      (0-3): 4 x TransformerLayer(
        (masked_attn_head): MultiHeadAttention(
          (v_linear): Linear(in_features=64, out_features=64, bias=True)
          (k_linear): Linear(in_features=64, out_features=64, bias=True)
          (dropout): Dropout(p=0.2, inplace=False)
          (out_proj): Linear(in_features=64, out_features=64, bias=True)
        )
        (layer_norm1): LayerNorm((64,), eps=1e-05, elementwise_affine=True)
        (dropout1): Dropout(p=0.2, inplace=False)
        (linear1): Linear(in_features=64, out_features=128, bias=True)
        (activation): ReLU()
        (dropout): Dropout(p=0.2, inplace=False)
        (linear2): Linear(in_features=128, out_features=64, bias=True)
        (layer_norm2): LayerNorm((64,), eps=1e-05, elementwise_affine=True)
        (dropout2): Dropout(p=0.2, inplace=False)
      )
    )
    (blocks_2): ModuleList(
      (0-7): 8 x TransformerLayer(
        (masked_attn_head): MultiHeadAttention(
          (v_linear): Linear(in_features=64, out_features=64, bias=True)
          (k_linear): Linear(in_features=64, out_features=64, bias=True)
          (dropout): Dropout(p=0.2, inplace=False)
          (out_proj): Linear(in_features=64, out_features=64, bias=True)
        )
        (layer_norm1): LayerNorm((64,), eps=1e-05, elementwise_affine=True)
        (dropout1): Dropout(p=0.2, inplace=False)
        (linear1): Linear(in_features=64, out_features=128, bias=True)
        (activation): ReLU()
        (dropout): Dropout(p=0.2, inplace=False)
        (linear2): Linear(in_features=128, out_features=64, bias=True)
        (layer_norm2): LayerNorm((64,), eps=1e-05, elementwise_affine=True)
        (dropout2): Dropout(p=0.2, inplace=False)
      )
    )
  )
  (out): Sequential(
    (0): Linear(in_features=128, out_features=512, bias=True)
    (1): ReLU()
    (2): Dropout(p=0.2, inplace=False)
    (3): Linear(in_features=512, out_features=256, bias=True)
    (4): ReLU()
    (5): Dropout(p=0.2, inplace=False)
    (6): Linear(in_features=256, out_features=1, bias=True)
  )
)
2024-04-23 18:01:26 - main - said: train model
ts.shape: (291175,), ps.shape: (291175,)
Epoch: 1, validauc: 0.9085, validacc: 0.8977, best epoch: 1, best auc: 0.9085, train loss: 0.372785870583609, emb_type: qid, model: akt, save_dir: saved_model/MOOCRadar_akt_qid_saved_model_3407_0_0.2_64_128_4_4_0.0001_1_1_a86a963d-8958-4dd1-b67c-67b5936c73cd
            testauc: -1, testacc: -1, window_testauc: -1, window_testacc: -1
…
