…
params: {'dataset_name': 'MOOCRadar', 'model_name': 'gkt', 'emb_type': 'qid', 'save_dir': 'saved_model', 'seed': 42, 'fold': 0, 'learning_rate': 0.01, 'dropout': 0.5, 'hidden_dim': 32, 'graph_type': 'transition', 'use_wandb': 1, 'add_uuid': 1, 'emb_size': 32}, params_str: MOOCRadar_gkt_qid_saved_model_42_0_0.01_0.5_32_transition_1_1_32
Start training model: gkt, embtype: qid, save_dir: saved_model/MOOCRadar_gkt_qid_saved_model_42_0_0.01_0.5_32_transition_1_1_32_8ea6e0de-2e88-4dd5-8ae3-0ec0ab52e31b, dataset_name: MOOCRadar
model_config: {'learning_rate': 0.01, 'dropout': 0.5, 'hidden_dim': 32, 'graph_type': 'transition', 'use_wandb': 1, 'add_uuid': 1, 'emb_size': 32}
train_config: {'batch_size': 8, 'num_epochs': 200, 'optimizer': 'adam', 'seq_len': 200}
2024-05-03 23:48:25 - main - said: init_model
model_name:gkt
model is GKT(
  (interaction_emb): Embedding(6714, 32)
  (emb_c): Embedding(3358, 32, padding_idx=3357)
  (f_self): MLP(
    (fc1): Linear(in_features=64, out_features=32, bias=True)
    (fc2): Linear(in_features=32, out_features=32, bias=True)
    (norm): BatchNorm1d(32, eps=1e-05, momentum=0.1, affine=True, track_running_stats=True)
  )
  (f_neighbor_list): ModuleList(
    (0-1): 2 x MLP(
      (fc1): Linear(in_features=128, out_features=32, bias=True)
      (fc2): Linear(in_features=32, out_features=32, bias=True)
      (norm): BatchNorm1d(32, eps=1e-05, momentum=0.1, affine=True, track_running_stats=True)
    )
  )
  (erase_add_gate): EraseAddGate(
    (erase): Linear(in_features=32, out_features=32, bias=True)
    (add): Linear(in_features=32, out_features=32, bias=True)
  )
  (gru): GRUCell(32, 32)
  (predict): Linear(in_features=32, out_features=1, bias=True)
)
2024-05-03 23:48:25 - main - said: train model
2024-05-03 23:48:55 - train_model - said: Total train step is 10, the loss is 0.59705
2024-05-03 23:49:24 - train_model - said: Total train step is 20, the loss is 0.41137
2024-05-03 23:49:54 - train_model - said: Total train step is 30, the loss is 0.72631
2024-05-03 23:50:23 - train_model - said: Total train step is 40, the loss is 0.32634
…
