…
params: {'dataset_name': 'MOOCRadar', 'model_name': 'saint', 'emb_type': 'qid', 'save_dir': 'saved_model', 'seed': 42, 'fold': 0, 'dropout': 0.2, 'emb_size': 64, 'learning_rate': 0.001, 'num_attn_heads': 4, 'n_blocks': 4, 'use_wandb': 1, 'add_uuid': 1}, params_str: MOOCRadar_saint_qid_saved_model_42_0_0.2_64_0.001_4_4_1_1
Start training model: saint, embtype: qid, save_dir: saved_model/MOOCRadar_saint_qid_saved_model_42_0_0.2_64_0.001_4_4_1_1_47e15527-688c-49db-b678-805bcae40bec, dataset_name: MOOCRadar
model_config: {'dropout': 0.2, 'emb_size': 64, 'learning_rate': 0.001, 'num_attn_heads': 4, 'n_blocks': 4, 'use_wandb': 1, 'add_uuid': 1}
train_config: {'batch_size': 64, 'num_epochs': 200, 'optimizer': 'adam', 'seq_len': 200}
2024-04-23 18:42:45 - main - said: init_model
model_name:saint
num_q: 2903, num_c: 3357
model is SAINT(
  (embd_pos): Embedding(200, 64)
  (encoder): ModuleList(
    (0-3): 4 x Encoder_block(
      (embd_ex): Embedding(2903, 64)
      (emb_cat): Embedding(3357, 64)
      (multi_en): MultiheadAttention(
        (out_proj): NonDynamicallyQuantizableLinear(in_features=64, out_features=64, bias=True)
      )
      (layer_norm1): LayerNorm((64,), eps=1e-05, elementwise_affine=True)
      (dropout1): Dropout(p=0.2, inplace=False)
      (ffn_en): transformer_FFN(
        (FFN): Sequential(
          (0): Linear(in_features=64, out_features=64, bias=True)
          (1): ReLU()
          (2): Dropout(p=0.2, inplace=False)
          (3): Linear(in_features=64, out_features=64, bias=True)
        )
      )
      (layer_norm2): LayerNorm((64,), eps=1e-05, elementwise_affine=True)
      (dropout2): Dropout(p=0.2, inplace=False)
    )
  )
  (decoder): ModuleList(
    (0-3): 4 x Decoder_block(
      (embd_res): Embedding(3, 64)
      (multi_de1): MultiheadAttention(
        (out_proj): NonDynamicallyQuantizableLinear(in_features=64, out_features=64, bias=True)
      )
      (multi_de2): MultiheadAttention(
        (out_proj): NonDynamicallyQuantizableLinear(in_features=64, out_features=64, bias=True)
      )
      (ffn_en): transformer_FFN(
        (FFN): Sequential(
          (0): Linear(in_features=64, out_features=64, bias=True)
          (1): ReLU()
          (2): Dropout(p=0.2, inplace=False)
          (3): Linear(in_features=64, out_features=64, bias=True)
        )
      )
      (layer_norm1): LayerNorm((64,), eps=1e-05, elementwise_affine=True)
      (layer_norm2): LayerNorm((64,), eps=1e-05, elementwise_affine=True)
      (layer_norm3): LayerNorm((64,), eps=1e-05, elementwise_affine=True)
      (dropout1): Dropout(p=0.2, inplace=False)
      (dropout2): Dropout(p=0.2, inplace=False)
      (dropout3): Dropout(p=0.2, inplace=False)
    )
  )
  (dropout): Dropout(p=0.2, inplace=False)
  (out): Linear(in_features=64, out_features=1, bias=True)
)
2024-04-23 18:42:45 - main - said: train model
ts.shape: (291175,), ps.shape: (291175,)
Epoch: 1, validauc: 0.9062, validacc: 0.8982, best epoch: 1, best auc: 0.9062, train loss: 0.3159919687154719, emb_type: qid, model: saint, save_dir: saved_model/MOOCRadar_saint_qid_saved_model_42_0_0.2_64_0.001_4_4_1_1_47e15527-688c-49db-b678-805bcae40bec
            testauc: -1, testacc: -1, window_testauc: -1, window_testacc: -1
…
