…
params: {'dataset_name': 'XES3G5M', 'model_name': 'gkt', 'emb_type': 'qid', 'save_dir': 'saved_model', 'seed': 42, 'fold': 0, 'learning_rate': 0.01, 'dropout': 0.5, 'hidden_dim': 32, 'graph_type': 'transition', 'use_wandb': 1, 'add_uuid': 1, 'emb_size': 32}, params_str: XES3G5M_gkt_qid_saved_model_42_0_0.01_0.5_32_transition_1_1_32
Start training model: gkt, embtype: qid, save_dir: saved_model/XES3G5M_gkt_qid_saved_model_42_0_0.01_0.5_32_transition_1_1_32_282c7212-edcb-44a1-ae9e-9561f2cdb584, dataset_name: XES3G5M
model_config: {'learning_rate': 0.01, 'dropout': 0.5, 'hidden_dim': 32, 'graph_type': 'transition', 'use_wandb': 1, 'add_uuid': 1, 'emb_size': 32}
train_config: {'batch_size': 8, 'num_epochs': 200, 'optimizer': 'adam', 'seq_len': 200}
2024-05-04 18:39:46 - main - said: init_model
model_name:gkt
model is GKT(
  (interaction_emb): Embedding(2516, 32)
  (emb_c): Embedding(1259, 32, padding_idx=1258)
  (f_self): MLP(
    (fc1): Linear(in_features=64, out_features=32, bias=True)
    (fc2): Linear(in_features=32, out_features=32, bias=True)
    (norm): BatchNorm1d(32, eps=1e-05, momentum=0.1, affine=True, track_running_stats=True)
  )
  (f_neighbor_list): ModuleList(
    (0-1): 2 x MLP(
      (fc1): Linear(in_features=128, out_features=32, bias=True)
      (fc2): Linear(in_features=32, out_features=32, bias=True)
      (norm): BatchNorm1d(32, eps=1e-05, momentum=0.1, affine=True, track_running_stats=True)
    )
  )
  (erase_add_gate): EraseAddGate(
    (erase): Linear(in_features=32, out_features=32, bias=True)
    (add): Linear(in_features=32, out_features=32, bias=True)
  )
  (gru): GRUCell(32, 32)
  (predict): Linear(in_features=32, out_features=1, bias=True)
)
2024-05-04 18:39:47 - main - said: train model
2024-05-04 18:40:12 - train_model - said: Total train step is 10, the loss is 0.61051
2024-05-04 18:40:37 - train_model - said: Total train step is 20, the loss is 0.50119
2024-05-04 18:41:02 - train_model - said: Total train step is 30, the loss is 0.50018
2024-05-04 18:41:27 - train_model - said: Total train step is 40, the loss is 0.42953
…
