…
params: {'dataset_name': 'XES3G5M', 'model_name': 'saint', 'emb_type': 'qid', 'save_dir': 'saved_model', 'seed': 42, 'fold': 0, 'dropout': 0.2, 'emb_size': 64, 'learning_rate': 0.001, 'num_attn_heads': 4, 'n_blocks': 4, 'use_wandb': 1, 'add_uuid': 1}, params_str: XES3G5M_saint_qid_saved_model_42_0_0.2_64_0.001_4_4_1_1
Start training model: saint, embtype: qid, save_dir: saved_model/XES3G5M_saint_qid_saved_model_42_0_0.2_64_0.001_4_4_1_1_d9249e39-5093-4686-8d99-e1bcab5063e2, dataset_name: XES3G5M
model_config: {'dropout': 0.2, 'emb_size': 64, 'learning_rate': 0.001, 'num_attn_heads': 4, 'n_blocks': 4, 'use_wandb': 1, 'add_uuid': 1}
train_config: {'batch_size': 64, 'num_epochs': 200, 'optimizer': 'adam', 'seq_len': 200}
2024-04-25 12:54:40 - main - said: init_model
model_name:saint
num_q: 8329, num_c: 1258
model is SAINT(
  (embd_pos): Embedding(200, 64)
  (encoder): ModuleList(
    (0-3): 4 x Encoder_block(
      (embd_ex): Embedding(8329, 64)
      (emb_cat): Embedding(1258, 64)
      (multi_en): MultiheadAttention(
        (out_proj): NonDynamicallyQuantizableLinear(in_features=64, out_features=64, bias=True)
      )
      (layer_norm1): LayerNorm((64,), eps=1e-05, elementwise_affine=True)
      (dropout1): Dropout(p=0.2, inplace=False)
      (ffn_en): transformer_FFN(
        (FFN): Sequential(
          (0): Linear(in_features=64, out_features=64, bias=True)
          (1): ReLU()
          (2): Dropout(p=0.2, inplace=False)
          (3): Linear(in_features=64, out_features=64, bias=True)
        )
      )
      (layer_norm2): LayerNorm((64,), eps=1e-05, elementwise_affine=True)
      (dropout2): Dropout(p=0.2, inplace=False)
    )
  )
  (decoder): ModuleList(
    (0-3): 4 x Decoder_block(
      (embd_res): Embedding(3, 64)
      (multi_de1): MultiheadAttention(
        (out_proj): NonDynamicallyQuantizableLinear(in_features=64, out_features=64, bias=True)
      )
      (multi_de2): MultiheadAttention(
        (out_proj): NonDynamicallyQuantizableLinear(in_features=64, out_features=64, bias=True)
      )
      (ffn_en): transformer_FFN(
        (FFN): Sequential(
          (0): Linear(in_features=64, out_features=64, bias=True)
          (1): ReLU()
          (2): Dropout(p=0.2, inplace=False)
          (3): Linear(in_features=64, out_features=64, bias=True)
        )
      )
      (layer_norm1): LayerNorm((64,), eps=1e-05, elementwise_affine=True)
      (layer_norm2): LayerNorm((64,), eps=1e-05, elementwise_affine=True)
      (layer_norm3): LayerNorm((64,), eps=1e-05, elementwise_affine=True)
      (dropout1): Dropout(p=0.2, inplace=False)
      (dropout2): Dropout(p=0.2, inplace=False)
      (dropout3): Dropout(p=0.2, inplace=False)
    )
  )
  (dropout): Dropout(p=0.2, inplace=False)
  (out): Linear(in_features=64, out_features=1, bias=True)
)
2024-04-25 12:54:41 - main - said: train model
ts.shape: (1096821,), ps.shape: (1096821,)
Epoch: 1, validauc: 0.8359, validacc: 0.8527, best epoch: 1, best auc: 0.8359, train loss: 0.38311588054748313, emb_type: qid, model: saint, save_dir: saved_model/XES3G5M_saint_qid_saved_model_42_0_0.2_64_0.001_4_4_1_1_d9249e39-5093-4686-8d99-e1bcab5063e2
            testauc: -1, testacc: -1, window_testauc: -1, window_testacc: -1
…
