…
params: {'dataset_name': 'FrcSub', 'model_name': 'gkt', 'emb_type': 'qid', 'save_dir': 'saved_model', 'seed': 42, 'fold': 0, 'learning_rate': 0.01, 'dropout': 0.5, 'hidden_dim': 64, 'graph_type': 'transition', 'use_wandb': 1, 'add_uuid': 1, 'emb_size': 64}, params_str: FrcSub_gkt_qid_saved_model_42_0_0.01_0.5_64_transition_1_1_64
Start training model: gkt, embtype: qid, save_dir: saved_model/FrcSub_gkt_qid_saved_model_42_0_0.01_0.5_64_transition_1_1_64_1787e207-67bd-4091-8a57-b6ca982438c1, dataset_name: FrcSub
model_config: {'learning_rate': 0.01, 'dropout': 0.5, 'hidden_dim': 64, 'graph_type': 'transition', 'use_wandb': 1, 'add_uuid': 1, 'emb_size': 64}
train_config: {'batch_size': 8, 'num_epochs': 200, 'optimizer': 'adam', 'seq_len': 200}
2024-05-03 23:15:23 - main - said: init_model
model_name:gkt
model is GKT(
  (interaction_emb): Embedding(22, 64)
  (emb_c): Embedding(12, 64, padding_idx=11)
  (f_self): MLP(
    (fc1): Linear(in_features=128, out_features=64, bias=True)
    (fc2): Linear(in_features=64, out_features=64, bias=True)
    (norm): BatchNorm1d(64, eps=1e-05, momentum=0.1, affine=True, track_running_stats=True)
  )
  (f_neighbor_list): ModuleList(
    (0-1): 2 x MLP(
      (fc1): Linear(in_features=256, out_features=64, bias=True)
      (fc2): Linear(in_features=64, out_features=64, bias=True)
      (norm): BatchNorm1d(64, eps=1e-05, momentum=0.1, affine=True, track_running_stats=True)
    )
  )
  (erase_add_gate): EraseAddGate(
    (erase): Linear(in_features=64, out_features=64, bias=True)
    (add): Linear(in_features=64, out_features=64, bias=True)
  )
  (gru): GRUCell(64, 64)
  (predict): Linear(in_features=64, out_features=1, bias=True)
)
2024-05-03 23:15:24 - main - said: train model
2024-05-03 23:15:47 - train_model - said: Total train step is 10, the loss is 0.37814
2024-05-03 23:16:09 - train_model - said: Total train step is 20, the loss is 0.2194
2024-05-03 23:16:32 - train_model - said: Total train step is 30, the loss is 0.23512
2024-05-03 23:16:54 - train_model - said: Total train step is 40, the loss is 0.19096
…
